model_registry/models/m_410bbc83ec7d/model.pt (torch, 19657 bytes, 4 tensors)

0.weight f4 [128, 30]
0.13722853 0.15107834 -0.046885416 0.1655321 -0.0032202583 0.034599442 -0.09041347 0.105183914
0.15958723 -0.15851451 0.13372709 0.026995689 0.16945474 0.05928135 0.07230336 -0.01512723
0.15490079 0.056229446 -0.09192413 0.010073931 -0.09155645 -0.009363421 -0.09653795 0.15777285
-0.18092848 -0.08799055 -0.02954467 -0.10977683 0.01723192 -0.2096225 0.17670402 -0.14422004
0.15362959 0.0421421 -0.088289335 0.12440759 0.039747007 0.15906397 0.031227723 -0.034078896
0.07199081 -0.034644477 0.051500056 0.13765919 0.12917125 -0.07977069 0.10450247 0.009135369
0.1163607 -0.082190774 -0.18915161 -0.0692885 -0.1387385 0.120716184 0.08217204 0.091887355
0.04375182 -0.0031760556 0.14288406 -0.105480045 0.028630871 -0.108104505 0.07400298 -0.04583692
0.021399923 -0.02081326 0.16854408 -0.091049455 -0.09184267 -0.0820779 0.19319248 0.034759708
0.14765246 -0.17895834 -0.16328584 -0.1204972 -0.10788689 0.052639768 0.08352453 0.1860292
-0.08893951 -0.10456793 0.09079863 -0.108290024 0.14559881 -0.04381798 0.0974229 -0.1418543
-0.09213602 0.08708629 0.022611497 -0.06320201 0.09365499 0.10820986 -0.1668958 -0.113550335
0.15110992 -0.07765501 -0.08072616 -0.18746445 -0.12441068 0.06820848 0.0054160883 -0.10302562
0.009665472 -0.14919567 -0.18238844 -0.12793058 -0.15852252 -0.08237219 0.18914147 0.03871171
0.06122293 -0.20441575 -0.08527924 -0.061061468 0.014919396 -0.16065091 -0.07866629 -0.07864771
0.016017249 -0.052692097 0.00307607 -0.108277656 -0.12771626 -0.09088267 -0.046900418 -0.12851386
0.16864242 -0.04294664 0.1540714 0.04386085 -0.18242258 0.098158024 -0.035559386 -0.060511574
-0.13797136 -0.17609209 0.052320026 -0.039557986 0.08440456 -0.16262925 0.15368587 -0.13575414
-0.02894598 0.030471295 0.08426379 0.14739403 0.16631764 -0.14239083 0.042160403 -0.0828102
-0.02303025 -0.14019787 0.13756663 -0.13777058 0.093725175 0.0603694 0.05544222 -0.0848492
0.17933944 0.045911454 0.050963853 -0.13337874 0.10346933 -0.012363873 -0.07585554 0.18334074
0.037863877 -0.07182302 -0.09128314 0.0018133676 0.11637143 -0.07557386 -0.07414729 -0.05231576
-0.15978642 0.06511188 0.14131977 -0.14537908 0.055576075 0.10811969 0.045846317 -0.051679626
0.12644143 0.10933731 0.08177355 -0.01868426 -0.034787647 -0.0003429211 -0.05021505 -0.066230826
0.14516698 0.18524359 -0.01546768 -0.021401202 0.028219149 0.00062818034 0.05759867 0.018519826
-0.1592202 -0.06664786 0.12954205 0.10429532 -0.042702604 -0.113814026 -0.11768376 -0.1635439
-0.059512325 0.059880193 0.10715474 0.07498892 -0.17047755 -0.11892927 -0.0521137 0.16729681
0.017098775 -0.05658338 0.06618132 -0.05655508 -0.1058552 0.14124928 -0.05877818 -0.012119289
-0.16333084 0.11911732 0.13624774 0.060138676 -0.10894427 -0.15607868 -0.15569073 0.14182457
0.06966726 0.12956509 0.11427166 0.05620517 -0.008766242 -0.13884877 -0.15642448 -0.15220852
0.096045814 -0.068280004 -0.015507028 -0.08377513 -0.0073119365 -0.10718369 -0.097956926 0.08188678
-0.032914788 0.09520293 -0.07732909 -0.12357504 -0.056066904 -0.111933 -0.0349977 -0.16669565
00000000: a385 0c3e 48b4 1a3e ec0a 40bd 3f81 293e
00000010: f80a 53bb 25b8 0d3d b32a b9bd aa6a d73d
00000020: d66a 233e a151 22be c1ef 083e 1026 dd3c
00000030: 8b85 2d3e 00d1 723d c913 943d 34d8 77bc
00000040: 509e 1e3e d950 663d b842 bcbd 210d 253c
00000050: f381 bbbd 0969 19bc b0b5 c5bd 358f 213e
00000060: 5145 39be 6434 b4bd aa07 f2bc add2 e0bd
00000070: f529 8d3c 48a7 56be e6f1 343e 6bae 13be
00000080: 1351 1d3e 329d 2c3d 0ad1 b4bd 68c9 fe3d
00000090: c2cd 223d aae1 223e 48d1 ff3c 5096 0bbd
000000a0: eb6f 933d 5ee7 0dbd b9f1 523d 88f6 0c3e
000000b0: 7845 043e d15e a3bd 6405 d63d 84ac 153c
000000c0: 854e ee3d a353 a8bd f6b0 41be 21e7 8dbd
000000d0: 7711 0ebe 0c3a f73d d149 a83d 702f bc3d
000000e0: 1c35 333d 5f25 50bb 3350 123e ec05 d8bd
000000f0: 4a8b ea3c e565 ddbd e08e 973d 7fbf 3bbd
00000100: e44e af3c 9280 aabc d296 2c3e 2378 babd
00000110: 0318 bcbd 7518 a8bd 40d4 453e 3260 0e3d
00000120: 3532 173e db40 37be 6734 27be 3cc7 f6bd
00000130: cdf3 dcbd cc9c 573d e90e ab3d 707e 3e3e
00000140: eb25 b6bd b627 d6bd a2f4 b93d 29c7 ddbd
00000150: db17 153e 7b7a 33bd a885 c73d 4142 11be
00000160: cfb1 bcbd 4c5a b23d bf3b b93c 0e70 81bd
00000170: 30ce bf3d 229d dd3d bce6 2abe 148d e8bd
00000180: 8fbc 1a3e 9709 9fbd c253 a5bd aef6 3fbe
00000190: 07cb febd e3b0 8b3d 7179 b13b 19ff d2bd
000001a0: ee5b 1e3c c0c6 18be 09c4 3abe 3c00 03be
000001b0: ba53 22be c0b2 a8bd 4dae 413e 2c90 1e3d
000001c0: e5c4 7a3d 5d52 51be e2a6 aebd 971b 7abd
000001d0: 7b70 743c ac81 24be cb1b a1bd 0d12 a1bd
000001e0: 9b36 833c abd3 57bd e497 493b adc0 ddbd
000001f0: 0dc8 02be b120 babd a71a 40bd 2399 03be
00000200: 99b0 2c3e d1e8 2fbd e5c4 1d3e 6fa7 333d
00000210: fccc 3abe 1307 c93d b8a6 11bd fcda 77bd
00000220: 5d48 0dbe 7c51 34be 864d 563d 8e07 22bd
00000230: 4cdc ac3d 4888 26be d45f 1d3e 2203 0bbe
00000240: 1f20 edbc f09e f93c 7e92 ac3d 76ee 163e
00000250: 2c4f 2a3e e7ce 11be 63b0 2c3d 6598 a9bd
00000260: efa9 bcbc 0890 0fbe 44de 0c3e bb13 0dbe
00000270: fcf2 bf3d e745 773d 6217 633d 6bc5 adbd
00000280: c2a4 373e a60d 3c3d 79bf 503d 7094 08be
00000290: bae7 d33d d891 4abc 265a 9bbd adbd 3b3e
000002a0: 2717 1b3d f317 93bd a8f2 babd 85ae ed3a
000002b0: 2554 ee3d 78c6 9abd 89da 97bd 0d49 56bd
000002c0: 0d9f 23be 6159 853d 21b6 103e 41de 14be
000002d0: bda3 633d db6d dd3d 59c9 3b3d 04ae 53bd
000002e0: dd79 013e 3dec df3d e478 a73d bc0f 99bc
000002f0: 7e7d 0ebd 17ca b3b9 4cae 4dbd 07a4 87bd
00000300: a7a6 143e 7fb0 3d3e 276c 7dbc 9351 afbc
00000310: d82b e73c 78ac 243a 95ec 6b3d e4b6 973c
00000320: 9f0a 23be ac7e 88bd aca6 043e c998 d53d
00000330: ede8 2ebd 5417 e9bd 2f04 f1bd 0d78 27be
00000340: 32c3 73bd ef44 753d f273 db3d ca93 993d
00000350: ab91 2ebe 3091 f3bd 2d75 55bd db4f 2b3e
00000360: bb12 8c3c f9c3 67bd 128a 873d 4da6 67bd
00000370: 9cca d8bd a7a3 103e 64c1 70bd fb8f 46bc
00000380: 3340 27be c8f3 f33d 8784 0b3e f953 763d
00000390: 2c1e dfbd 17d3 1fbe 646d 1fbe 763a 113e
000003a0: b5ad 8e3d b6ac 043e 4307 ea3d 6437 663d
000003b0: 49a0 0fbc 5f2e 0ebe bd2d 20be 8ddc 1bbe
000003c0: abb3 c43d 63d6 8bbd 3111 7ebc 4c92 abbd
000003d0: f898 efbb 1f83 dbbd a49d c8bd 42b4 a73d
000003e0: a8d1 06bd c1f9 c23d b75e 9ebd e914 fdbd
000003f0: 69a6 65bd 213d e5bd c059 0fbd 44b2 2abe

0.bias f4 [128]
-0.13150464 0.04531963 0.1522228 0.012037366 0.04123814 0.051967442 -0.14815223 -0.053861726
-0.09161319 -0.118279904 0.115813866 0.19613461 0.042633574 0.09617887 -0.112409115 0.063034184
0.0059744245 -0.08180631 0.039089017 0.07672137 0.023909511 0.1013489 0.08885909 0.15099224
0.0404732 0.04078911 -0.024278387 0.048683066 -0.12148678 -0.047132026 -0.12622379 -0.09469723
-0.120307595 0.13849334 -0.083152466 -0.0053105936 0.027872218 0.1934875 0.090024054 -0.15263742
0.15769318 -0.16438465 0.053489123 0.1448655 0.1837502 -0.06800929 -0.114651725 0.116367266
0.13732868 -0.063913144 -0.042452846 -0.13436677 0.05980197 0.02118199 0.11440739 -0.031682655
-0.19842528 -0.09342152 -0.13347247 -0.00876856 0.042238522 -0.117002964 0.022554258 -0.14607765
-0.10574345 -0.09468495 -0.029700974 -0.11610322 0.058181483 0.08387196 0.13269177 0.09276379
0.03151482 0.0025126857 0.15461098 -0.11881605 0.11062173 -0.14640427 -0.15931718 0.028406356
-0.04425169 0.06368677 0.16740121 0.10936511 0.19481122 -0.10421425 -0.110588945 0.012090847
-0.059171032 -0.048594475 0.020728411 0.14384125 -0.09983529 0.105270766 0.11791349 0.093334824
0.07975975 -0.047665127 0.110314 -0.05385118 -0.12791187 0.20422186 0.14910011 -0.097625956
0.12992655 0.020110905 0.08276311 0.18094642 -0.017958267 -0.037390452 0.109158754 -0.068242624
-0.008869235 -0.04316309 0.1596445 0.061564032 0.0055292672 0.01073568 -0.012900215 -0.07716329
0.082884096 -0.16683413 -0.035077784 -0.020263761 -0.09394384 0.20065868 0.082454145 0.12398445
00000000: 27a9 06be 14a1 393d 4be0 1b3e 5f38 453c
00000010: 53e9 283d d0db 543d 38b5 17be 1d9e 5cbd
00000020: b29f bbbd bc3c f2bd d22f ed3d 83d7 483e
00000030: 8ba0 2e3d 6df9 c43d c036 e6bd 1118 813d
00000040: 1bc5 c33b 118a a7bd ce1b 203d 1820 9d3d
00000050: e1dd c33c 0390 cf3d c1fb b53d b69d 1a3e
00000060: 3ac7 253d 7b12 273d 78e3 c6bc e567 473d
00000070: 10ce f8bd 830d 41bd cf40 01be 9ff0 c1bd
00000080: d463 f6bd 33d1 0d3e d74b aabd 7d04 aebb
00000090: 4754 e43c 9621 463e 885e b83d fc4c 1cbe
000000a0: 527a 213e 7354 28be 6917 5b3d 9f57 143e
000000b0: 0329 3c3e 7448 8bbd 86ce eabd f651 ee3d
000000c0: e49f 0c3e e5e4 82bd 09e3 2dbd 7197 09be
000000d0: e9f2 743d da85 ad3c 6c4e ea3d acc5 01bd
000000e0: ff2f 4bbe c853 bfbd 02ad 08be 02aa 0fbc
000000f0: 4d02 2d3d 409f efbd b5c3 b83c 6195 15be
00000100: 0690 d8bd 2fea c1bd 754f f3bc 86c7 edbd
00000110: b54f 6e3d 10c5 ab3d 5ae0 073e f1fa bd3d
00000120: af15 013d dfab 243b 5752 1e3e d455 f3bd
00000130: a58d e23d 00eb 15be 0b24 23be 72b4 e83c
00000140: 4341 35bd 366e 823d 396b 2b3e d1fa df3d
00000150: 987c 473e 486e d5bd 757c e2bd b018 463c
00000160: 535d 72bd 000b 47bd a1ce a93c 1f4b 133e
00000170: 7276 ccbd 3398 d73d a17c f13d 5426 bf3d
00000180: 1459 a33d 823c 43bd 4eec e13d 0e93 5cbd
00000190: 54fb 02be 891f 513e b3ad 183e 1ef0 c7bd
000001a0: 770b 053e a0bf a43c b57f a93d 054a 393e
000001b0: 371d 93bc bb26 19bd a08e df3d cac2 8bbd
000001c0: 4550 11bc c8cb 30bd d979 233e 912a 7c3d
000001d0: db2e b53b b5e4 2f3c 6c5b 53bc c907 9ebd
000001e0: 23bf a93d 91d6 2abe b9ad 0fbd 3000 a6bc
000001f0: a165 c0bd 7879 4d3e b8dd a83d 8feb fd3d

3.weight f4 [3, 128]
-0.039495602 0.036623616 -0.0073280563 0.01718151 -0.053242385 0.0052742413 -0.04065806 0.07920475
0.031999156 0.022462323 0.050186057 0.07482075 0.11156456 0.014684763 0.06035866 -0.0011352678
-0.0208411 -0.00013599964 0.0025096443 -0.0494528 -0.057048313 -0.06664007 -0.025163544 0.035589755
0.04623171 -0.04241693 0.020825 -0.02712466 -0.008961621 -0.028873527 -0.053583756 -0.067456946
0.11750838 0.03374817 -0.032121785 0.03940289 -0.07667896 -0.030008554 0.091428176 -0.0029219387
-0.002095709 -0.07711723 -0.039388277 0.03267398 -0.065080866 -0.06751821 0.09176467 0.05851115
0.02870912 -0.11125554 0.08693324 0.007143219 0.021654421 0.043284558 -0.07803401 0.057454396
-0.07333574 0.05640125 0.015329263 0.042498328 -0.060467348 0.06071712 -0.06415013 -0.008901839
0.056830917 -0.09794383 -0.05708368 -0.003087197 -0.01091742 0.03307548 0.05856097 -0.05354716
-0.00841521 0.07469942 -0.043250926 0.03700199 0.034719117 0.07135771 -0.037466895 0.058606267
-0.08242483 0.033962157 0.015132372 0.042305537 -0.066592135 0.039509628 -0.03267797 0.07253666
0.0056162537 -0.09996601 -0.03466844 0.0052752076 0.009543751 0.097335815 0.010840759 0.04415175
0.021023644 -0.056909837 0.092535555 -0.04149011 0.02743486 0.043218475 -0.020777492 0.094556086
-0.07261331 0.0018783503 0.06762516 -0.018296089 0.014394886 -0.113417305 -0.025624983 0.071310595
0.07862501 -0.104185104 0.015242444 -0.017853575 0.116847806 -0.06832177 0.008522413 -0.06546213
-0.08308705 -0.034497444 -0.055024173 0.04868576 -0.05654462 0.059964135 -0.08185229 -0.029497327
-0.09683412 0.040565744 0.10585914 0.10068904 -0.0037540325 0.025065746 -0.107648104 0.009250832
0.016365964 -0.05168607 -0.088983215 -0.117924005 -0.01682611 -0.019365765 -0.07486051 0.11435832
-0.06014394 0.061195973 0.012388381 0.040506918 0.057213012 0.07572828 -0.00941049 0.009578055
0.101069 0.024698569 -0.03904508 0.03327444 0.017247137 -0.045239694 0.03211159 0.01061109
-0.070269875 -0.072826795 -0.07289033 -0.069920406 -0.020912645 0.117092356 -0.0777644 -0.028849041
-0.0347073 -0.028257076 0.032633007 -0.03923656 0.053554352 -0.05137587 0.049268395 -0.01696477
0.0088563105 -0.0004471062 0.0072162016 0.035608683 -0.07326282 0.006359733 0.06567998 -0.050558276
-0.05841502 -0.04475713 0.021405818 -0.050041806 -0.035010755 -0.08958027 0.052608497 0.091988735
0.0925324 0.021518026 0.067331865 -0.046244945 0.06757168 0.053243164 0.064751014 -0.0035000704
0.10419747 -0.11823267 0.020569347 0.00025174784 -0.06753055 -0.08379909 -0.04472456 0.037696805
0.023466049 0.0069513093 -0.048427977 0.09900578 -0.022024425 0.043389045 0.040918376 -0.10864074
-0.034022022 0.084642455 0.11402286 -0.053723406 0.03266627 -0.06194816 0.11439228 0.040796828
0.09068056 0.036441803 -0.041927032 0.1133852 -0.014771821 -0.030421922 -0.0003873505 -0.09839252
-0.01659149 0.04783223 -0.042096872 -0.09174894 0.005886838 0.043456513 -0.07853077 0.022667479
-0.10874196 0.029957574 -0.05182536 -0.051961042 -0.044650666 0.048909117 0.051813837 0.062693305
0.09983785 -0.024815056 0.022192644 0.07745613 -0.05711733 -0.10289096 0.068638854 0.0393245
00000000: 24c6 21bd a502 163d 3120 f0bb 3dc0 8c3c
00000010: b014 5abd 8bd3 ac3b 1189 26bd 1a36 a23d
00000020: 8c11 033d e802 b83c e58f 4d3d 9f3b 993d
00000030: f67b e43d 5c98 703c a43a 773d 44cd 94ba
00000040: f4ba aabc 209b 0eb9 d878 243b 058f 4abd
00000050: 7eab 69bd 977a 88bd c723 cebc 90c6 113d
00000060: 765d 3d3d 60bd 2dbd 3199 aa3c 8934 debc
00000070: c3d3 12bc 2d88 ecbc a47a 5bbd de26 8abd
00000080: 3ca8 f03d 853b 0a3d 2292 03bd ed64 213d
00000090: dc09 9dbd 80d4 f5bc b23e bb3d ff7d 3fbb
000000a0: 2a58 09bb a3ef 9dbd 9a55 21bd 27d5 053d
000000b0: 1e49 85bd fd46 8abd 1eef bb3d 63a9 6f3d
000000c0: 632f eb3c f2d9 e3bd 0e0a b23d aa11 ea3b
000000d0: 9d64 b13c 264b 313d 4cd0 9fbd 4d55 6b3d
000000e0: 0c31 96bd ff04 673d 9727 7b3c ba12 2e3d
000000f0: 9cac 77bd 84b2 783d 2561 83bd 05d9 11bc
00000100: 89c7 683d c696 c8bd 94d0 69bd 9252 4abb
00000110: fade 32bc 287a 073d a1dd 6f3d 4454 5bbd
00000120: f3df 09bc 02fc 983d e227 31bd 668f 173d
00000130: a235 0e3d fe23 923d e376 19bd 200d 703d
00000140: 59ce a8bd e71b 0b3d c5ed 773c 9248 2d3d
00000150: 7561 88bd d9d4 213d 56d9 05bd 1a8e 943d
00000160: 8d08 b83b fbba ccbd 7f00 0ebd a6db ac3b
00000170: 655d 1c3c 0058 c73d 709d 313c 77d8 343d
00000180: c739 ac3c 4a1a 69bd 4883 bd3d 89f1 29bd
00000190: 12bf e03c db05 313d 8f35 aabc 9fa6 c13d
000001a0: 49b6 94bd fa32 f63a 0f7f 8a3d aee1 95bc
000001b0: 87d8 6b3c 5547 e8bd 7ceb d1bc 4a0b 923d
000001c0: 2606 a13d 005f d5bd 72bb 793c a941 92bc
000001d0: e74d ef3d 49ec 8bbd 97a1 0b3c 0211 86bd
000001e0: 8b29 aabd 314d 0dbd 0761 61bd b86a 473d
000001f0: 559b 67bd f49c 753d 2ca2 a7bd 61a4 f1bc
00000200: f850 c6bd 4428 263d adcc d83d 0e36 ce3d
00000210: 3706 76bb ae56 cd3c 9c76 dcbd cd90 173c
00000220: ea11 863c c6b4 53bd d53c b6bd 2482 f1bd
00000230: e9d6 89bc f4a4 9ebc 7850 99bd b234 ea3d
00000240: 7e59 76bd a1a8 7a3d a3f8 4a3c 95ea 253d
00000250: 3158 6a3d 6e17 9b3d 752e 1abc 46ed 1c3c
00000260: 44fd ce3d a754 ca3c bced 1fbd c74a 083d
00000270: de49 8d3c 424d 39bd 7187 033d 23da 2d3c
00000280: a7e9 8fbd 3726 95bd 8647 95bd 6e32 8fbd
00000290: ff50 abbc 1ece ef3d f142 9fbd d354 ecbc
000002a0: 3e29 0ebd 627b e7bc 30aa 053d 84b6 20bd
000002b0: cf5b 5b3d 816f 52bd a8cd 493d b4f9 8abc
000002c0: 0f1a 113c 9469 eab9 e375 ec3b 69da 113d
000002d0: d10a 96bd 4f65 d03b 3a83 863d 3216 4fbd
000002e0: 9744 6fbd 4153 37bd 415b af3c a3f8 4cbd
000002f0: 7067 0fbd dc75 b7bd 027c 573d 9764 bc3d
00000300: a081 bd3d 9246 b03c 4ae5 893d 576b 3dbd
00000310: 0563 8a3d 8115 5a3d 2e9c 843d 7061 65bb
00000320: 7c65 d53d f823 f2bd 0c81 a83c 06fd 8339
00000330: 754d 8abd db9e abbd 1a31 37bd f767 1a3d
00000340: df3b c03c cfc7 e33b 6a5c 46bd 8bc3 ca3d
00000350: 916c b4bc b6b8 313d 079a 273d 097f debd
00000360: ad5a 0bbd 0659 ad3d d184 e93d 130d 5cbd
00000370: 11cd 053d 5bbd 7dbd 8046 ea3d 931a 273d
00000380: bbb6 b93d 0044 153d aebb 2bbd 8036 e83d
00000390: 8205 72bc 6537 f9bc 4e15 cbb9 0482 c9bd
000003a0: e0ea 87bc baeb 433d c56d 2cbd dee6 bbbd
000003b0: 60e6 c03b 75ff 313d bed4 a0bd 26b1 b93c
000003c0: 1bb4 debd 9669 f53c d446 54bd 1ad5 54bd
000003d0: 9ee3 36bd ed54 483d bf3a 543d 5965 803d
000003e0: c977 cc3d f248 cbbc 59cd b53c 52a1 9e3d
000003f0: ddf3 69bd 7fb8 d2bd 8792 8c3d ba12 213d

3.bias f4 [3]
-0.02363719 0.06578199 -0.010621467
00000000: c8a2 c1bc b5b8 863d a905 2ebc
